model/model2.pth (torch, 16799 bytes, 4 tensors)

linear1.weight f4 [256, 11]
000000 6e f4 40 bf b0 f9 a8 3d 10 41 c1 be 6a 04 2b be
       -0.7537297 0.08250749 -0.3774495 -0.16700903
000010 85 46 94 be de 87 25 bd f6 02 a8 be bf 72 4c 3c
       -0.28960052 -0.040412776 -0.3281476 0.0124785295
000020 2a b2 31 3e 7d ea 57 bd 24 ab 14 3e b6 45 9d be
       0.1735312 -0.05271386 0.1451841 -0.30717248
000030 fd d8 a0 3e 86 1d 61 bd 05 c3 a4 bf 30 e5 fb 3c
       0.3141555 -0.054959796 -1.2872015 0.030748934
000040 02 9d 4d 3f 32 8d d9 be 9e cd 84 be a6 97 a3 bf
       0.803177 -0.42490536 -0.25938123 -1.2780654
000050 64 b2 0b 3f 1b 56 87 bf 6d 36 26 3e 25 79 6b 3e
       0.5456908 -1.0573152 0.162317 0.22995432
000060 80 3a 59 3d af 3d a7 bd 72 fa 8a be 2a d7 ee bd
       0.053034306 -0.08166062 -0.271442 -0.11662133
000070 ae 61 27 be da 95 57 be 87 1e d2 bd 34 5d d2 bd
       -0.16345856 -0.21053258 -0.10259729 -0.10271683
000080 c1 81 29 bd 7e 8e 70 be 03 ec ba 3e 57 86 8e be
       -0.04138351 -0.23491856 0.36508188 -0.27836868
000090 20 34 8d 3e c0 0e 8f 3e 89 26 4b bf 7b 41 46 bf
       0.2757883 0.2794094 -0.79355675 -0.77443665
0000a0 ac cd 30 3f ad c2 4e 3f 27 24 ec be 0a 12 b1 be
       0.6906383 0.807658 -0.46121332 -0.34584075
0000b0 4e 05 3b 3e 00 d1 0d 3e ff 47 27 3d 50 e4 f4 3e
       0.18263742 0.13849258 0.040840145 0.4783044
0000c0 26 b4 f4 be f6 6a 2f 3e bd 00 09 bf f5 27 c0 be
       -0.47793692 0.17130646 -0.5351675 -0.37530485
0000d0 70 dd 1a 3f 83 66 67 3d d8 d8 38 3f 13 68 d4 3e
       0.60494137 0.056494247 0.7220588 0.41485652
0000e0 cb 62 62 3d a2 45 66 3c a9 1d 72 3f 44 a1 ec 3e
       0.055269998 0.014054688 0.9457651 0.46216786
0000f0 cd 03 4d be 44 92 18 bf 78 60 70 bf db bf 15 bf
       -0.20020981 -0.59598184 -0.938972 -0.58495873
000100 b9 bd 20 3e d2 d4 0e 3f da ed 06 bf e6 9b a3 3e
       0.15697373 0.5579349 -0.5270668 0.3195488
000110 a9 c8 2c 3e 8a 00 f2 3e 00 7b 14 be 2e 4b db be
       0.16873421 0.47266036 -0.14500046 -0.42830795
000120 e6 d2 30 3d e5 01 05 bf 21 15 54 3e b8 1b e9 be
       0.04316988 -0.51956016 0.20711185 -0.4552896
000130 aa 5e 52 bd 7d 32 27 be ec a4 0d be 25 68 2e bf
       -0.05135981 -0.16327854 -0.13832444 -0.6812766
000140 09 ac 96 3e 10 5c cf 3e 95 f6 74 be e9 49 1f bf
       0.29428127 0.40499926 -0.23922189 -0.6222215
000150 e0 7a 16 bf 71 1b 61 bf f0 d6 12 3e 43 45 eb 3e
       -0.5878124 -0.879325 0.14339805 0.4595128
000160 74 b0 e1 3e 7d 81 0d bf a5 70 13 3f 36 1a a7 bc
       0.44079936 -0.5527571 0.57593757 -0.02039824
000170 a2 b4 00 bf 88 c1 1e 3d f5 31 f1 3e c1 5c 26 3d
       -0.50275624 0.038758785 0.47108427 0.0406158
000180 96 84 14 3f 28 5b 77 bd 91 27 23 bf 66 6b c0 3d
       0.5801481 -0.060389668 -0.6373225 0.093954846
000190 d7 bf b0 3e 9c f8 94 bd a1 89 0c 3e ea 3c 1f bc
       0.34521362 -0.07273981 0.13724376 -0.009719113
0001a0 8a 4c be 3d c2 1d 45 bd b2 87 1b 3f bf f3 d0 3e
       0.092919424 -0.048124082 0.6075393 0.40810964
0001b0 2e 22 90 3e 77 79 07 3f a0 2d 84 3f 58 ae 28 3d
       0.28151077 0.52919716 1.0326424 0.041181892
0001c0 ad 9d 72 bf 7d 26 98 3e 86 fa 2b bf 52 32 26 be
       -0.94771844 0.29716864 -0.67179143 -0.16230133
0001d0 00 94 29 3f e9 76 8a be f9 61 fd 3e bd 29 07 3e
       0.66241455 -0.27043846 0.4948881 0.13199516
0001e0 a1 fb 2a bf 67 37 80 bd 99 0e 01 3d 3e e8 3a bf
       -0.66790205 -0.06260567 0.031508062 -0.73010623
0001f0 1b 4b f5 3e 12 ae e9 3e 53 2c 2b 3e 8e 0b 03 3f
       0.47908863 0.45640618 0.16716127 0.51189506
000200 51 40 aa be 17 89 5d be f0 3c 9f be da 62 b6 bd
       -0.33252195 -0.21634327 -0.3110118 -0.08905573
000210 e3 81 b2 3c db 0d f7 3e 40 c7 fd bd 98 d3 64 bd
       0.02179045 0.48252758 -0.123915195 -0.055865854
000220 66 cf b0 be 7c 52 a3 be d3 50 67 3d b8 e2 eb 3e
       -0.34533232 -0.31898868 0.056473564 0.4607141
000230 6f c9 2e 3f f8 96 23 3f 12 ef f4 3e eb 43 c2 bd
       0.68276113 0.63902235 0.47838646 -0.094856106
000240 86 4a 27 3f 5b cf 77 be 3c df 17 3f 59 84 e5 3e
       0.6534809 -0.24200194 0.59325004 0.44827536
000250 d5 8a 29 bf 35 89 9f be 11 bb a1 3e 89 aa 20 3f
       -0.66227466 -0.31159368 0.31588033 0.62760216
000260 42 5d 29 bf c9 5b 12 bf 1c 0b 9d bd fd 43 db 3e
       -0.66157925 -0.57171303 -0.076681346 0.42825308
000270 73 c8 a8 3d 44 72 c0 3e 85 22 38 bf 13 39 ae 3e
       0.08241358 0.37587178 -0.7192767 0.3402792
000280 bd 6c f3 be bc 59 8f bd 94 eb 65 3f 75 9f ec bd
       -0.47543898 -0.06999537 0.8981259 -0.115538515
000290 e1 18 2b 3f 0f 81 b8 bc 5d ac f3 3e 46 01 a5 be
       0.6683484 -0.022522477 0.4759244 -0.32227534
0002a0 1a 9b de 3d 0e 78 5a bf 5a bf c6 be 45 08 30 3f
       0.10869427 -0.8533944 -0.38817865 0.6876262
0002b0 89 00 cc bf ed 4a 85 be f4 30 2e bf 71 10 8c 3e
       -1.5937663 -0.26033726 -0.68043447 0.27356294
0002c0 aa 8d b5 3e 66 50 3d 3d 40 99 af 3e a9 03 99 be
       0.35459644 0.046219252 0.34296608 -0.29885605
0002d0 02 4c 9e be 7d 53 b2 be 34 f6 5b be 66 5b 2d 3f
       -0.30917364 -0.34829322 -0.21480638 0.6771759
0002e0 21 a6 e6 3e 6d b0 0d 3f 98 59 08 3f 8b 0a d4 be
       0.4504862 0.5534733 0.5326171 -0.41414294
0002f0 e7 ad 4f bd 97 5c 32 bf b2 4b 26 bf 1d 96 0b 3f
       -0.050702956 -0.6967253 -0.6495925 0.5452593
000300 69 31 13 3f 72 d3 db be 0d 95 cb be 0a 55 78 be
       0.5749727 -0.42934757 -0.39762154 -0.2425119
000310 3d fe da 3e 3e 2c 39 bf 40 5d 67 3e 94 d5 a0 bf
       0.42772093 -0.72333133 0.22594166 -1.2565179
000320 d7 f7 c6 bd 9e af 8f be 88 27 b3 3e 81 80 06 3f
       -0.097152404 -0.28063673 0.34991097 0.5253983
000330 c7 54 3d be 78 ed 12 3f 2a 9f 07 3d 4c e3 86 be
       -0.18489371 0.573936 0.033110775 -0.2634529
000340 db 9a f1 3e 7e 32 e6 3d 9e 4f 46 bf af cc 02 3f
       0.47188458 0.11240099 -0.77465236 0.5109357
000350 55 74 3d 3e 54 dd af be 33 47 1b bf ec 88 b2 3e
       0.18501408 -0.34348547 -0.60655516 0.34870088
000360 cd f5 43 3e 3a 99 17 bf c7 16 2f bd dd 08 d9 bd
       0.19136734 -0.5921818 -0.04274633 -0.10597394
000370 4c 82 c1 3e 54 1f 0c 3d 22 f9 0c bd 57 f7 25 bd
       0.3779472 0.034209564 -0.03441728 -0.040519085
000380 db 6e 1d 3d 12 22 dc 3d ab 88 1e be 3b 3c 18 3f
       0.0384358 0.10748686 -0.15481822 0.59466904
000390 14 66 e8 3e ad 51 d7 3e 59 dd 1e 3f 80 23 ab bb
       0.4539038 0.420545 0.620565 -0.005222738
0003a0 15 ef 98 be 32 5c 15 3e 8e aa c3 bd 9e 41 44 be
       -0.29869905 0.14585951 -0.09554015 -0.19165656
0003b0 88 34 06 3d 37 bc e7 3d 3a dd 34 be 14 06 7d be
       0.03276494 0.11315196 -0.17662516 -0.2470935
0003c0 7e 61 96 be 6b 07 ab bd 8f 95 52 3f 96 98 be 3d
       -0.29371256 -0.08351024 0.8225946 0.09306447
0003d0 b9 1b 77 bf 00 b4 03 bf 4d 5f 89 3e 21 3c 91 be
       -0.96526676 -0.51446533 0.2683052 -0.28366187
0003e0 6b 07 bb bb 8b 50 dd 3d 16 10 e3 be d3 d9 18 3e
       -0.0057076714 0.10806378 -0.4434821 0.14926843
0003f0 7b 11 b5 be ed 8e 1a 3e 8f 3e 4c bf 6b a5 e1 be
       -0.353649 0.15093584 -0.79782957 -0.44071516

linear1.bias f4 [256]
000000 04 dc ca be 8f 39 6c 3e 64 3c 98 be 9c 3d 88 3d
       -0.39620984 0.23068832 -0.29733574 0.06652376
000010 22 8d ac be 64 28 43 ba bb c5 1d be fe 62 5a 3d
       -0.33701426 -0.00074446783 -0.1540746 0.053317063
000020 ac da 81 bc 15 f7 01 bf fa 39 02 bb 38 b6 01 40
       -0.015851341 -0.5076764 -0.0019870983 2.0267467
000030 0e e7 d0 be 50 60 23 3d db 5c af be 3d c7 eb 3d
       -0.4080128 0.039886773 -0.3425053 0.11512611
000040 75 c3 b1 be 03 f8 86 bd 7f ac 9a be 09 8d 0e 3e
       -0.34719434 -0.06590273 -0.3020973 0.13920988
000050 0a 65 12 bf 65 02 58 be 5e 45 1a 3d 67 3d ca be
       -0.57185423 -0.21094663 0.03766381 -0.3949997
000060 71 d8 86 be a9 53 79 be d1 3d a7 3e 6e 03 91 be
       -0.26337007 -0.2434832 0.3266435 -0.2832293
000070 54 5f 80 be d3 36 1a 3f 69 cb d0 be 58 62 77 3e
       -0.2507273 0.60239905 -0.4078019 0.24158609
000080 cd d9 e2 bd 96 1b 2a be 44 a1 94 be 99 6d 55 be
       -0.110766985 -0.16612086 -0.29029286 -0.2084259
000090 2b 63 32 be 3c de fd 3e 75 49 fa 3e dc 01 a7 3e
       -0.17420642 0.49583614 0.48884168 0.32618606
0000a0 73 91 0a bf fb e2 61 be 0b a9 86 be d1 52 2c bf
       -0.5412819 -0.22059242 -0.26300845 -0.6731387
0000b0 be ca a0 be 6b d1 1f bf 3d d6 ba be fb ca d4 be
       -0.3140468 -0.6242892 -0.36491576 -0.41561112
0000c0 67 fe f6 bc 40 97 51 be 7a 49 83 be e0 72 a8 be
       -0.030150605 -0.20467854 -0.25641996 -0.32900143
0000d0 b8 7c 78 be 00 31 14 be b1 7c e2 be 18 96 93 be
       -0.24266326 -0.14471817 -0.44235757 -0.2882545
0000e0 3f 88 9d be 71 0f 04 3e 9c db 25 be 38 19 f8 3e
       -0.3076801 0.12896515 -0.16197056 0.4845674
0000f0 12 23 cb 3e 7c 13 f7 be b2 63 78 be 9f 73 ea 3e
       0.39675194 -0.48257053 -0.2425678 0.45791337
000100 c8 03 7d be fb 0e 00 bf d0 47 b3 be a5 57 ef be
       -0.24708474 -0.5002286 -0.35015726 -0.46746555
000110 e8 36 0a 3e 06 93 13 bf 68 18 63 3e 1b dc 39 be
       0.13497508 -0.57646215 0.22177279 -0.1815037
000120 bb 65 09 be 18 22 52 3e a2 db a9 be 1d d5 e2 be
       -0.13417713 0.20520818 -0.3317538 -0.44303218
000130 1f 2c 42 be 9e 5c 9c be f7 f2 87 be 46 e9 b5 3f
       -0.18962143 -0.3053941 -0.26552555 1.4211814
000140 64 aa a9 3e cf 75 96 be 64 5e 26 bd 7c 20 ba 3e
       0.3313781 -0.29386756 -0.04061736 0.3635291
000150 f7 9e a0 bd d2 81 35 be 69 df b2 bd ba 42 b1 be
       -0.0784282 -0.17725304 -0.08734018 -0.3462122
000160 c3 79 97 be 90 35 38 3e 2c 8d c4 be 82 ff cb 3e
       -0.29585084 0.17989182 -0.38388956 0.39843374
000170 ab c8 5a be a9 3b 6b 3c 1c d2 84 be 1e 9b 1d bf
       -0.21365611 0.014357486 -0.2594155 -0.61564815
000180 85 2a 5b 3f da 28 a1 bd a4 84 85 be 8e b2 6f 3e
       0.85611755 -0.0786912 -0.2607776 0.23407957
000190 d8 72 08 3f a4 17 b9 be 0d eb d0 3e d7 a7 45 be
       0.5330024 -0.3615085 0.4080433 -0.19302307
0001a0 47 ba 37 be ea 8d 91 3f 9e 3b ca be de 7c 10 3f
       -0.17942153 1.1371434 -0.3949861 0.5644053
0001b0 43 6d e8 3d 97 13 96 be d9 03 d8 be 2f 89 03 bf
       0.11348965 -0.2931182 -0.42190436 -0.513812
0001c0 10 07 d3 3e 8f 7e 42 be e8 04 e2 be 73 16 cb 3d
       0.41216326 -0.18993591 -0.44144368 0.09916391
0001d0 c3 c3 b1 be 6d 48 17 3f ca 18 2c be 3b 39 d9 3e
       -0.34719667 0.5909489 -0.16806331 0.42426476
0001e0 20 75 c0 3e 9d 24 83 bd f2 ea fd bc 15 a6 f3 be
       0.3758936 -0.06403468 -0.03099582 -0.47587648
0001f0 7d 25 06 be dc e0 c3 be dd ae a9 3d 9a a1 ac be
       -0.13100238 -0.38257492 0.08285306 -0.33717042
000200 13 9e d8 be 94 6f a1 be 82 36 c6 3e 9f 12 0d be
       -0.423081 -0.3153044 0.3871346 -0.13776635
000210 02 90 5a 3d 28 52 c4 bd 90 89 4b be 7f 2c 5d be
       0.053359993 -0.095859826 -0.19876695 -0.21599005
000220 a8 2c a8 be 57 fa 2a 3f 18 37 82 3d dc eb d4 bd
       -0.3284657 0.6678824 0.063581645 -0.10396549
000230 4a a2 4d be 33 b5 c4 3e 3d 92 3f 3e 06 6c 52 be
       -0.2008144 0.38419494 0.18708129 -0.2054902
000240 02 b4 0b 3f cd f5 83 be 72 db 67 be 03 a9 55 3f
       0.54571545 -0.2577347 -0.22642305 0.83461016
000250 8f 19 e2 be 8a 42 5d 3e 61 94 62 3e 39 54 70 3d
       -0.44160125 0.21607414 0.22126915 0.05867407
000260 24 d5 c7 be 96 82 e3 be 75 c7 34 be 18 ab 0b bf
       -0.390298 -0.44435567 -0.17654212 -0.54557943
000270 cd eb ab 3d c8 f3 a7 3d 48 5e 9b 3d c8 9e ef be
       0.08394585 0.082007945 0.07586342 -0.46800828
000280 a7 c4 a2 be 5c 46 59 3f 35 fd 8c 3d c2 3d e3 be
       -0.3179066 0.84872985 0.06884233 -0.44383055
000290 aa a0 99 be 5e 2f 7c be 5a 40 83 be 1a e1 1c be
       -0.3000539 -0.24627444 -0.25635034 -0.15320244
0002a0 13 bb 74 3f f2 c1 2e be 56 04 39 3f 0c 0f ec bd
       0.9559795 -0.17066172 0.7227224 -0.115263075
0002b0 7b 7f ca be 8e 05 93 be 74 e3 e0 bd 5f f3 7f 3e
       -0.39550385 -0.28715175 -0.10980883 0.24995182
0002c0 b6 37 ac 3a f5 a3 2c 3f b5 42 fb be d9 8a 9c be
       0.0013139162 0.6743768 -0.4907433 -0.30574682
0002d0 3d 72 04 3f eb 1e ba 3f d7 ee 8e 3d 1d 93 06 be
       0.51736814 1.4540685 0.06979149 -0.13142057
0002e0 d2 2b ec be ba 31 eb be 75 6f 9a 3e 7f e6 f6 3d
       -0.46127182 -0.45936376 0.3016316 0.120556824
0002f0 a2 31 37 3f 18 2d 8c be 4c f8 85 be 43 a8 30 be
       0.7156011 -0.27378154 -0.26165998 -0.17251687
000300 f5 14 ce be 84 7f 96 be d2 fe 9e be e4 9f 64 be
       -0.40250364 -0.29394162 -0.31053787 -0.22326618
000310 fd 3f 47 3d 2b 9e 81 be 6a ee 55 bc 10 ec 4a be
       0.04864501 -0.25315985 -0.013057331 -0.19816613
000320 0f 4b 0b 3f 2b 52 db bd b4 46 a9 bd 4a a6 64 3d
       0.54411405 -0.10709032 -0.08265439 0.055822648
000330 fe 44 85 be 32 5d a7 be 89 b1 20 bd bc 50 ac bc
       -0.260292 -0.3268829 -0.03923181 -0.02103459
000340 c8 55 e7 bd 81 58 8f be ef 89 e1 3f dd ed ca bb
       -0.11295658 -0.2799721 1.7620219 -0.0061929063
000350 e7 90 c4 bc 90 6e 81 3e a3 fe b7 3d 2b 50 3d 3e
       -0.023994876 0.25279665 0.08984115 0.18487613
000360 42 f3 27 3e a4 f7 36 be 03 b5 91 3c 1f 16 65 be
       0.16401389 -0.17867905 0.017786508 -0.2237172
000370 b7 4c 8d 3e dc 8b 0a be 85 b1 7a be 1f 1b 4f 3f
       0.2759759 -0.13529915 -0.24481781 0.8090076
000380 2b 26 19 bf ca 18 94 3e 51 2c bf 3f bc 01 cc be
       -0.59823865 0.28925163 1.4935399 -0.39845073
000390 6c 62 c4 bc a6 c0 f3 3f 6d 64 f1 3e 25 0e 6a be
       -0.023972712 1.9043167 0.4714693 -0.22856958
0003a0 62 7d 2b be 88 5b fd 3e 72 41 43 bf 24 c5 d2 3d
       -0.16747048 0.49483895 -0.76271737 0.10291508
0003b0 78 e7 0b 3e 46 a7 f7 be 7c 2e dc bd f1 e2 4b be
       0.13662517 -0.48369807 -0.10751054 -0.1991079
0003c0 23 a6 74 be 8e 20 fc bd 2c c4 02 3e 6d 7f 08 bf
       -0.23891501 -0.12310897 0.12770146 -0.53319436
0003d0 ef 93 b3 be c8 32 45 be 82 f3 1e be 1c 54 3c be
       -0.35073802 -0.19257653 -0.15522578 -0.1839146
0003e0 ae 3d 49 bd 12 3b 7f 3d a1 29 a5 bc 31 ce 55 be
       -0.049131088 0.062312193 -0.020161452 -0.20879437
0003f0 b8 36 c7 3e 17 a0 73 3e 6f a7 87 be b6 66 70 be
       0.38908935 0.23791538 -0.2649493 -0.23476681

linear2.weight f4 [3, 256]
000000 eb 9e 6f 3e f9 06 18 3f 70 35 6a 3d 88 72 14 3f
       0.23400466 0.5938564 0.05717987 0.5798726
000010 47 80 f0 be f0 4d 7b bf 2c a5 15 be 9c f4 13 be
       -0.46972868 -0.981658 -0.1461379 -0.1444878
000020 02 c1 aa be 6e e7 0d be 47 5e 8f bf c7 31 bd 3e
       -0.33350378 -0.13857815 -1.1200646 0.3695204
000030 05 b0 7f be 94 3f 16 3f 57 65 3f bf b8 c4 07 3f
       -0.2496949 0.5869076 -0.7476401 0.53034544
000040 36 c9 7f be 9e 5d ae 3e fa a5 2e bf 3e f1 81 3e
       -0.249791 0.340558 -0.6822201 0.25379366
000050 69 06 86 be 96 a7 64 3d cb 15 04 be 38 7c fc bd
       -0.26176766 0.055823885 -0.12898938 -0.1232838
000060 ee 5a 8a bf 10 7b 40 bf 4a 50 22 3f 20 27 e6 bb
       -1.0809 -0.7518778 0.6340376 -0.007023707
000070 d6 3a 4b bd ea 7b 09 3f 1c 79 ef 3b 58 b4 90 3e
       -0.049616657 0.537047 0.0073081385 0.2826259
000080 f6 c2 03 bd aa 34 43 bf 4f bd 82 bf 2f be 8e 3c
       -0.03216835 -0.76252234 -1.0214022 0.017424671
000090 08 f5 d0 be 05 ad 21 3f ae 2e 01 3e 73 19 c4 3e
       -0.40811944 0.6315463 0.12615463 0.38300666
0000a0 62 f5 89 be 01 27 ee be 3a 9b 96 be 7d f6 0d be
       -0.26945025 -0.46514133 -0.29415303 -0.13863559
0000b0 3e fd e3 b9 57 f2 79 bd 2e 6a 90 be ee 09 61 bd
       -0.00043485494 -0.06102213 -0.2820601 -0.05494111
0000c0 5b d4 99 bb 3c 8d 98 bd 36 1e 1c be b7 26 93 3c
       -0.004694504 -0.07448813 -0.152459 0.017962797
0000d0 01 07 50 bd 0d 77 4b be e1 0f 9a be 36 47 3f bf
       -0.05078793 -0.19869633 -0.3009024 -0.74718034
0000e0 dc f6 b7 bc 01 32 6c 3e 93 11 fb be aa 2f 1e 3f
       -0.022456579 0.2306595 -0.49036846 0.6179148
0000f0 25 82 4a 3e 64 dd 93 be aa d6 ed be 11 27 53 3f
       0.19776209 -0.28879845 -0.46452838 0.82481486
000100 d6 23 56 bf ea 7c 76 be 06 ac a6 be 8c bc 6e be
       -0.8364843 -0.24071088 -0.32553118 -0.23314112
000110 b1 8a f4 3e 41 4e f0 be 0e 47 e2 3e a6 3e ab 3c
       0.47762063 -0.46934703 0.44194835 0.020903897
000120 cb f9 d8 3e 26 75 dc 3e af 18 08 bc ab 97 73 bd
       0.42378077 0.43058127 -0.008306666 -0.059470814
000130 6d 5f 69 bf f2 88 75 bd 2a ff a9 bd 9e e2 34 3f
       -0.91161233 -0.059945054 -0.08300622 0.7065829
000140 10 90 b4 3e db 93 04 bf 1b 4d 21 3d 72 26 85 3e
       0.3526616 -0.5178811 0.039380174 0.26005894
000150 82 e6 f7 bd 9b 7d 3d bf 66 52 1e ba 93 53 9a be
       -0.12104513 -0.74019784 -0.00060395 -0.30141887
000160 51 70 9b be ea f5 40 3d f3 b9 e9 bd fd 2a 22 3f
       -0.30359128 0.047109522 -0.1141242 0.63346845
000170 be 7c ae 3d 12 7b 9d be 77 8c 92 3e 12 49 2e be
       0.085198864 -0.30757958 0.2862279 -0.17020062
000180 b6 3c 3f 3f 52 48 02 be b0 f5 b9 be b0 1f 1b 3f
       0.7470201 -0.127229 -0.36320257 0.60595226
000190 47 1a e1 3e 46 20 b2 bd c2 d6 04 3f 49 2c f9 be
       0.4396536 -0.08697562 0.51890194 -0.486666
0001a0 03 28 38 bf 64 46 13 3f d3 91 28 bf 69 cc 13 3f
       -0.71936053 0.5752928 -0.6584751 0.5773378
0001b0 28 19 a1 3d 17 b1 dc be b6 1d af bd 37 f7 b0 be
       0.07866126 -0.4310386 -0.08550589 -0.3456361
0001c0 b8 9f dc 3e 07 9f ae be ac 76 a6 be 2e d9 53 3e
       0.43090606 -0.34105703 -0.32512414 0.20688316
0001d0 9b 25 27 be 9d f4 4e 3e 93 b5 ee 3c 41 b8 3e 3f
       -0.16322939 0.202105 0.029139316 0.744999
0001e0 43 18 53 3f 34 2d 3c bf 86 aa 86 bf 76 97 6d bd
       0.82458895 -0.73506474 -1.052079 -0.058005773
0001f0 cf 71 c6 bd c1 30 7f be 6f e8 a3 3e 3c c1 fd bb
       -0.09689676 -0.24920942 0.3201327 -0.0077439826
000200 06 af 0a bf 73 d1 48 be a2 ba 12 3f 15 e2 19 bd
       -0.54173315 -0.19611149 0.5731603 -0.037569124
000210 2a fd 78 3c 20 09 69 be 55 ff 25 3c 0b 21 28 bf
       0.015197078 -0.22757387 0.010131677 -0.6567542
000220 76 77 cb be f8 4b 01 3f fd 95 46 bf d8 b1 6e be
       -0.3973958 0.50506544 -0.77572614 -0.2331003
000230 be 18 f6 bc b6 77 f8 3e 90 11 37 be 13 3c 32 bf
       -0.030041095 0.48528832 -0.17877793 -0.69622916
000240 74 1b 1d 3f 1a 5b 63 be 45 8c 65 bc fd 10 01 3f
       0.61370015 -0.22202721 -0.014010494 0.5041655
000250 3b 53 95 be 61 f2 cf 3e 4d 37 93 3e ca e7 ae bb
       -0.29165062 0.40614608 0.2875313 -0.00533769
000260 4a 45 dc bc 72 61 81 bd 6b 99 20 be 6d 9a 2e bd
       -0.026888508 -0.06317414 -0.15683524 -0.04262774
000270 c0 f8 7a 3e c0 ed b1 3e d7 80 c4 bd f8 a5 93 bd
       0.24508953 0.347517 -0.09594887 -0.072093904
000280 d1 59 59 bd 3d b6 1a 3f 40 b4 68 3f eb 7f cd bd
       -0.05306417 0.60434324 0.9090004 -0.10034164
000290 bc 87 c8 bd 63 50 12 be 3b 44 bc bc 95 db 25 3b
       -0.09791514 -0.14288478 -0.022981754 0.0025307883
0002a0 8e f2 1e 3f 96 6e c1 be e0 4c 1d 3f 1e 28 ec be
       0.6208886 -0.37779683 0.61445427 -0.46124357
0002b0 7e 12 b1 3d a8 e4 ee bc c1 04 83 be c0 a8 2b 3f
       0.08646105 -0.029161766 -0.25589564 0.6705437
0002c0 ff de 06 bf 5f 37 17 3f 25 eb cb be 4d 36 10 be
       -0.52684015 0.59068865 -0.3982784 -0.14083214
0002d0 5b 1a 79 3e f3 ef 14 3f 23 1a 01 be 0c 39 2b bf
       0.2432646 0.58178633 -0.12607627 -0.6688392
0002e0 c5 b8 e8 bb 39 58 94 bd 62 87 be 3e 08 37 2e 3e
       -0.0071021044 -0.0724339 0.37212664 0.1701318
0002f0 0e 2b 3b 3f dc 42 c5 bc f7 b7 0a bf 24 4a 8d bd
       0.7311257 -0.024079733 -0.5418696 -0.06898907
000300 60 19 0e 3e bb 65 9d be e1 29 64 be 58 16 ff be
       0.13876867 -0.30741677 -0.222816 -0.49821734
000310 15 9d 15 3f 2b 61 05 bf c4 d1 2e bf 67 94 28 be
       0.58442813 -0.5210139 -0.68288827 -0.16462861
000320 98 82 21 3f b4 8f 53 3e 11 b3 bc 3d 79 67 33 3e
       0.63089895 0.20660287 0.09213842 0.1751994
000330 b1 b8 ce bd ff 39 cb be 8a 19 22 3e e4 ba 70 3e
       -0.10093821 -0.39692685 0.15830055 0.23508793
000340 58 20 00 bf 13 40 cc bd b3 cb 9b 3e a8 d0 63 be
       -0.5004935 -0.09973159 0.30428848 -0.22247565
000350 c4 cd 59 be ea 6f 29 3f bd 0e c8 be bc 32 c2 3e
       -0.212699 0.6618639 -0.39073744 0.37929332
000360 4e 2d d8 3e 00 f5 24 bd b7 f7 b9 3e 79 8d 3d bf
       0.42222065 -0.040272713 0.36321804 -0.74043995
000370 0b 46 a8 3e 2f f9 91 be d0 85 49 3c 26 ab 08 3f
       0.3286594 -0.28510424 0.01229997 0.5338615
000380 12 5c 3f be c9 53 20 3f 49 26 07 3f 7d 4c de bc
       -0.18687466 0.62627846 0.52792794 -0.027136082
000390 c3 b9 0b bf c1 8c 07 3f 1f f8 0e 3f 0b c3 55 bf
       -0.54580325 0.5294915 0.5584735 -0.83500737
0003a0 6d ac 75 bf 58 aa 09 3f c8 65 a3 be 39 62 09 bf
       -0.95966226 0.5377555 -0.3191359 -0.536655
0003b0 c4 d2 ea 3d 18 38 3d be 10 0d c6 bb 37 9b 36 3e
       0.114659816 -0.1847843 -0.0060440376 0.17832647
0003c0 44 84 18 bf 72 c1 0d bf 2f 70 bf 3f 63 75 51 be
       -0.5957682 -0.553733 1.4956111 -0.20454936
0003d0 15 2f 28 3e 5c 01 30 bd ac e9 01 bd 33 ad cb bc
       0.1642421 -0.042970046 -0.031716987 -0.024862861
0003e0 35 d0 43 bf c9 d6 44 bf 0a 8c df be 43 4f 82 be
       -0.76489574 -0.76890236 -0.4366153 -0.25451097
0003f0 75 4c 25 3f 86 b6 8a 3e 23 04 6e bb 55 2f 45 bf
       0.6456979 0.2709238 -0.0036318384 -0.7702535

linear2.bias f4 [3]
000000 3a b2 19 3f b4 49 51 3e b7 54 e9 3d
       0.6003758 0.20438272 0.11393111
