model/model.pth (torch, 16799 bytes, 4 tensors)

linear1.weight f4 [256, 11]
000000 6e f4 40 bf b0 f9 a8 3d 10 41 c1 be 6a 04 2b be
       -0.7537297 0.08250749 -0.3774495 -0.16700903
000010 85 46 94 be de 87 25 bd f6 02 a8 be bf 72 4c 3c
       -0.28960052 -0.040412776 -0.3281476 0.0124785295
000020 2a b2 31 3e 7d ea 57 bd 24 ab 14 3e 8b 43 90 be
       0.1735312 -0.05271386 0.1451841 -0.2817653
000030 66 5e 99 3e 02 96 ce bd 05 c3 a4 bf ff 01 80 bc
       0.29954833 -0.100872055 -1.2872015 -0.015625952
000040 57 17 4d 3f 93 40 f2 be 48 4d 9c be 53 92 98 bf
       0.8011374 -0.4731489 -0.3052771 -1.1919655
000050 6a ed 02 3f c6 4a 8a bf 6d 36 26 3e 25 79 6b 3e
       0.51143515 -1.0804069 0.162317 0.22995432
000060 80 3a 59 3d af 3d a7 bd 72 fa 8a be 2a d7 ee bd
       0.053034306 -0.08166062 -0.271442 -0.11662133
000070 ae 61 27 be da 95 57 be 87 1e d2 bd 34 5d d2 bd
       -0.16345856 -0.21053258 -0.10259729 -0.10271683
000080 c1 81 29 bd 77 e8 42 be f8 b2 be 3e b3 cd 95 be
       -0.04138351 -0.19033991 0.37245917 -0.292585
000090 22 27 90 3e 4c bd 95 3e a7 9a 52 bf e3 34 42 bf
       0.28154856 0.29245985 -0.8226723 -0.7586195
0000a0 22 85 27 3f 41 ae 4f 3f 32 19 fe be 6c 4a b5 be
       0.6543752 0.81125265 -0.49628597 -0.35408342
0000b0 0e 95 36 3e 23 fd 01 3e fe d0 86 3d 8a 6d fa 3e
       0.17830297 0.1269422 0.06582831 0.48911697
0000c0 96 87 d0 be e7 4e ec 3d 95 f8 09 bf 91 f8 b2 be
       -0.40728444 0.11538487 -0.5389493 -0.34955266
0000d0 ab 3b 17 3f c0 46 0b 3d 28 05 45 3f 82 19 a8 3e
       0.5907542 0.03400302 0.7696099 0.3283196
0000e0 36 5a 94 3d 18 bb 0c 3a 2d 7d 68 3f 57 6f ee 3e
       0.07243769 0.00053684553 0.90816003 0.4656932
0000f0 e9 8d 3e be 78 29 19 bf 56 6a 73 bf bc 0c 0d bf
       -0.18608822 -0.598289 -0.9508413 -0.55097556
000100 fb 06 19 3e d6 a6 14 3f a6 64 eb be bf de 86 3e
       0.14944069 0.5806707 -0.45975226 0.26341817
000110 6a 09 f6 3d d0 38 e7 3e 8b ab 2a be 2e 4b db be
       0.12013514 0.45160532 -0.16667001 -0.42830795
000120 1e e7 83 3d 97 d4 07 bf 93 fd 5a 3e 50 a3 e9 be
       0.064405665 -0.5305876 0.21385793 -0.4563241
000130 f5 df 4e bc 76 c2 47 be 72 00 1a be 48 ea 32 bf
       -0.012626638 -0.19507775 -0.15039232 -0.69888735
000140 c9 34 91 3e 55 e7 ce 3e b3 05 40 be e9 49 1f bf
       0.28360584 0.40410867 -0.18752174 -0.6222215
000150 eb b5 01 bf 91 3c 52 bf 7c 9f 1f 3e 7d 21 e8 3e
       -0.5066821 -0.82123667 0.15588182 0.4533805
000160 fe f9 c2 3e 38 d9 f3 be a4 6c 15 3f 2c 38 9b ba
       0.38081354 -0.47626662 0.583689 -0.0011842302
000170 30 27 0e bf e6 9d 73 3d 4a 7a ff 3e e4 ba d2 3d
       -0.55528545 0.059476756 0.49897987 0.10289553
000180 82 be 10 3f 72 30 30 bd f9 ac 1d bf c0 03 c5 3d
       0.5654069 -0.04301495 -0.6159206 0.09619856
000190 6b 9e ae 3e 1c 86 94 bd b6 a1 e9 3d 94 ee f3 3b
       0.34105238 -0.07252142 0.11407797 0.007444212
0001a0 be 1b 93 3d 17 f1 77 bd 54 74 05 3f 7e 06 e1 3e
       0.07183026 -0.060532656 0.5213063 0.43950266
0001b0 8e b9 9b 3e 00 ef 0f 3f 1d 44 76 3f 98 67 3b bc
       0.30415004 0.5622406 0.9619768 -0.011438273
0001c0 83 f8 5c bf f2 55 83 3e b3 a8 34 bf 32 cb 3a be
       -0.863167 0.2565151 -0.70569915 -0.18241575
0001d0 ee c2 2a 3f d2 c3 93 be 54 9b f4 3e 7d 8c c7 3d
       0.6670369 -0.28860337 0.47774756 0.09743593
0001e0 e8 45 2a bf 9d e8 dd bc 6b 71 dc 3c 2b 20 3b bf
       -0.6651292 -0.027088458 0.02690955 -0.7309596
0001f0 68 32 00 3f ca 87 e9 3e 7f 60 43 3e 61 d9 08 3f
       0.50076914 0.4561141 0.19079779 0.53456694
000200 8e 06 85 be 67 f0 1f be 0a 61 b2 be 4e ce e8 bd
       -0.25981563 -0.1561905 -0.3483966 -0.113674745
000210 4e 65 c1 3c 71 bf f6 3e ed 81 ab bd 48 ec a0 bd
       0.023607876 0.48192933 -0.08374391 -0.07857567
000220 4e 77 a8 be bb ef 98 be 8d ea a7 3b 49 78 c3 3e
       -0.32903522 -0.298704 0.005124396 0.38177708
000230 04 5d 33 3f 01 a1 25 3f 2c 32 04 3f 74 65 c8 bc
       0.70063806 0.646988 0.51639056 -0.02446244
000240 36 3d 21 3f 79 df 9a be 50 60 1c 3f 1e 00 e9 3e
       0.62984025 -0.3024862 0.6108446 0.45507902
000250 80 23 2a bf e5 d7 a7 be 94 f4 97 3e d3 b5 25 3f
       -0.6646042 -0.32781902 0.29678786 0.64730567
000260 92 be 31 bf 7e be 17 bf 73 77 eb bd 40 cd de 3e
       -0.6943141 -0.59275043 -0.114973925 0.43515968
000270 e0 db a8 3d c8 88 ac 3e 56 e6 26 bf ee 5f 99 3e
       0.08245063 0.33698106 -0.65195215 0.29956
000280 e1 05 e5 be a1 52 6e bd 4b fa 60 3f e3 47 f6 bd
       -0.44731048 -0.05818427 0.87881917 -0.1202543
000290 a7 37 3b 3f 14 47 de bc b0 5e d7 3e fc 9d bb be
       0.73131794 -0.027133502 0.42064428 -0.3664397
0002a0 87 17 c4 3d 0e 78 5a bf c1 5d db be 4b 1b 30 3f
       0.095748 -0.8533944 -0.42844966 0.68791646
0002b0 35 6a c6 bf c7 b0 4b be 6a ad 38 bf d9 78 84 3e
       -1.5501162 -0.19891654 -0.7213961 0.2587345
0002c0 9b f9 a9 3e 58 45 7a 3d 86 7c b8 3e 91 5a 97 be
       0.33198246 0.061101288 0.36032504 -0.29561284
0002d0 51 b2 93 be 2b 1e bc be 8c 99 5c be ca 34 1d 3f
       -0.28846982 -0.36741766 -0.21542948 0.61408675
0002e0 2b 6b f2 3e 51 d2 0d 3f 27 5e 10 3f c4 e0 ba be
       0.47347388 0.5539904 0.56393665 -0.36499608
0002f0 24 1c c6 bc 71 d6 2d bf b2 4b 26 bf 08 f1 07 3f
       -0.02418334 -0.67905337 -0.6495925 0.5310216
000300 13 c8 1d 3f 72 d3 db be 23 f8 b1 be 5c e9 59 be
       0.61633414 -0.42934757 -0.34759626 -0.21280426
000310 82 d3 c2 3e 3e 2c 39 bf e1 49 4a 3e 6c 23 97 bf
       0.38051993 -0.72333133 0.19754745 -1.1807685
000320 39 fa a6 ba cf 26 75 be e2 ba 99 3e 91 8c 03 3f
       -0.0012739367 -0.23940586 0.30025393 0.5138636
000330 26 03 40 be 29 8a 0a 3f f4 2e 07 3d 31 1d 83 be
       -0.18751201 0.54117066 0.033003762 -0.2560821
000340 3a 65 fa 3e 91 8e 17 3e a2 ac 4d bf e0 5f e6 3e
       0.48905355 0.14800479 -0.8034154 0.44995022
000350 1a 39 4a 3e 65 f0 c8 be 1e 13 d1 be 77 42 be 3e
       0.19748345 -0.39245906 -0.40834898 0.37160084
000360 7a f1 6f 3e 4f 8c 1f bf 47 83 7b bd 5e cc de bd
       0.2343196 -0.6232347 -0.061404493 -0.10878824
000370 f7 6f b7 3e a3 21 81 3d e2 8d b6 39 0d c4 29 bd
       0.3582761 0.06305244 0.00034819456 -0.041446734
000380 e6 90 60 3d d0 ae 8a 3d 62 f7 f6 bd 4f 0a 09 3f
       0.054825686 0.06771624 -0.12058903 0.53531355
000390 7c 5e ee 3e b6 12 de 3e 46 b8 2c 3f 80 23 ab bb
       0.4655646 0.4337365 0.6746868 -0.005222738
0003a0 15 ef 98 be 32 5c 15 3e 8e aa c3 bd 9e 41 44 be
       -0.29869905 0.14585951 -0.09554015 -0.19165656
0003b0 88 34 06 3d 37 bc e7 3d 3a dd 34 be 14 06 7d be
       0.03276494 0.11315196 -0.17662516 -0.2470935
0003c0 7e 61 96 be 6b 07 ab bd 31 f6 4a 3f 5a 18 03 3e
       -0.29371256 -0.08351024 0.7928191 0.12802258
0003d0 f5 32 79 bf 2f ac f9 be a9 c6 85 3e 2b a5 92 be
       -0.9734338 -0.48764178 0.26128128 -0.28641638
0003e0 02 6c 2c bd 2f 86 f5 3d 7e 4f bf be 36 b9 0b 3e
       -0.04209519 0.11988484 -0.37365335 0.13644871
0003f0 b4 9b bf be 88 73 2f 3e dd cf 41 bf 55 0a ce be
       -0.3742348 0.17133915 -0.757078 -0.40242258

linear1.bias f4 [256]
000000 04 dc ca be ab ad 35 3e 64 3c 98 be d2 81 81 3d
       -0.39620984 0.1774203 -0.29733574 0.063235894
000010 80 ec a0 be 9d 19 e3 ba 8d a3 1b be ac 82 64 3d
       -0.31430435 -0.0017326359 -0.15199108 0.05578868
000020 b3 10 53 3c cc 76 01 bf 8d 90 c4 bc c4 e8 02 40
       0.012882399 -0.50571895 -0.023994708 2.045457
000030 6f 75 d8 be e0 58 4a 3d e8 1b a5 be 19 55 c3 3d
       -0.42277095 0.049401164 -0.32247853 0.095377155
000040 41 d8 aa be 0a 80 73 bd 74 99 9b be 81 11 27 3e
       -0.33368114 -0.05944828 -0.30390513 0.16315271
000050 b1 58 0b bf 65 02 58 be f4 f7 59 3c 7c e1 d5 be
       -0.5443221 -0.21094663 0.013303746 -0.41773593
000060 ff 0d 89 be 5c f4 81 be 3b 1a a4 3e 29 f7 82 be
       -0.2676849 -0.25381744 0.32051262 -0.25579193
000070 54 5f 80 be d6 c1 17 3f b2 07 d4 be 45 31 8b 3e
       -0.2507273 0.59280145 -0.4141212 0.27186027
000080 cd d9 e2 bd 61 c9 2b be 16 70 a8 be 99 6d 55 be
       -0.110766985 -0.16776039 -0.32898015 -0.2084259
000090 eb 7d 17 be be b2 0a 3f 78 a6 0b 3f 70 60 ad 3e
       -0.14794128 0.5417899 0.54550886 0.33862638
0000a0 57 8a 0a bf 36 03 56 be 47 14 8a be 2e 0a 25 bf
       -0.5411734 -0.20899662 -0.26968595 -0.6446866
0000b0 be ca a0 be 70 e4 1c bf ad 84 c1 be e3 53 c9 be
       -0.3140468 -0.6128607 -0.37796536 -0.39321813
0000c0 67 fe f6 bc 9a c8 64 be 4e bd 8e be 79 3f 8f be
       -0.030150605 -0.22342148 -0.27878803 -0.27978113
0000d0 a9 96 61 be 52 61 e4 bd 1c 2b e1 be 56 5f 95 be
       -0.22030129 -0.11151375 -0.43978202 -0.29174298
0000e0 45 12 98 be c7 b7 00 3e f3 e7 5b be 10 e4 e7 3e
       -0.2970144 0.12570105 -0.214752 0.45291185
0000f0 80 64 ce 3e 89 29 01 bf 08 bd 7e be 40 6c dc 3e
       0.4031105 -0.50454 -0.24876797 0.43051338
000100 b1 2c 86 be 24 e1 03 bf 8b f6 b2 be 78 92 eb be
       -0.26205972 -0.5151541 -0.34953722 -0.46010184
000110 07 a0 01 3e ee 03 0c bf 8f 89 37 3e 57 97 5d be
       0.12658702 -0.54693496 0.17923568 -0.21639763
000120 0c 82 08 be 90 f2 47 3e 17 0b a9 be dd 33 d7 be
       -0.13330859 0.19526124 -0.33016273 -0.42031756
000130 e1 f4 5b be c9 a8 8f be fe 88 88 be e5 fd b5 3f
       -0.21480133 -0.2805846 -0.26667017 1.4218107
000140 27 f7 a0 3e 34 5d 99 be 5d c9 76 bc d6 8b a6 3e
       0.31438562 -0.2995392 -0.015062657 0.3252856
000150 9c 67 fe bd 25 13 46 be 0e 9a ef bd bb eb ac be
       -0.12422106 -0.1934324 -0.116993055 -0.33773598
000160 43 35 99 be 40 73 6f 3e 36 e7 c2 be 54 dc d0 3e
       -0.29923448 0.23383808 -0.38067025 0.40793097
000170 93 ac 31 be 71 09 81 bc c9 d6 6a be 63 f9 1b bf
       -0.17350988 -0.015751572 -0.22933497 -0.6092741
000180 68 b6 5d 3f 24 bb 9b bd 84 99 80 be e8 44 60 3e
       0.86606455 -0.076040536 -0.25117123 0.21901286
000190 38 b3 0d 3f a3 57 ac be 04 b9 c1 3e 5c ec 54 be
       0.5535159 -0.33660612 0.37836468 -0.20793289
0001a0 72 95 17 be e4 01 94 3f 8c 75 d4 be 0d 56 12 3f
       -0.14803103 1.1563077 -0.4149593 0.57162553
0001b0 e2 5e ea 3d 83 fd 8b be 08 0f cb be a7 59 fd be
       0.11443879 -0.27341852 -0.39659905 -0.49482462
0001c0 d9 3d d7 3e 37 e2 50 be 35 e7 ca be 2a a1 a9 3d
       0.42039374 -0.20398794 -0.39629522 0.08282693
0001d0 1f 67 ac be 4d d1 24 3f ca 18 2c be 55 6a df 3e
       -0.33672425 0.6438187 -0.16806331 0.43635812
0001e0 76 7c c7 3e ec 77 90 bd 55 c3 2c bd c3 eb ec be
       0.38962144 -0.07054123 -0.04217847 -0.46273622
0001f0 13 9d 0b be 9f 31 d1 be 60 0d cb 3d 9a a1 ac be
       -0.13634138 -0.4085817 0.099146605 -0.33717042
000200 ee a6 e8 be 9d 25 97 be 85 d5 be 3e 4a 6f 00 be
       -0.45439857 -0.29520884 0.37272277 -0.12542453
000210 e1 ae ac 3d 47 c5 da bd 21 a4 3a be 05 a5 46 be
       0.08431793 -0.10682159 -0.18226673 -0.19398887
000220 9e 40 b1 be 03 44 2d 3f 05 d4 80 3d 4f d6 dc bd
       -0.34619612 0.676819 0.062904395 -0.107830636
000230 4a a2 4d be 42 6d cb 3e 35 f9 49 3e 3f c8 57 be
       -0.2008144 0.39731795 0.19723971 -0.21072482
000240 e0 a3 0d 3f e9 e3 7c be 2e e0 77 be e9 5a 60 3f
       0.5532818 -0.24696316 -0.24206612 0.8763872
000250 bc b1 de be 1b 68 62 3e 1c 6d 56 3e 84 47 8c 3d
       -0.43494976 0.22110026 0.2094006 0.06849578
000260 e1 55 af be ae 85 e6 be d7 d2 38 be a3 d2 08 bf
       -0.34245208 -0.45023865 -0.18049179 -0.53446406
000270 c4 e9 a5 3d 36 5a a1 3d 6c ba 9c 3d 34 1d 00 bf
       0.08101228 0.078785345 0.07652745 -0.5004456
000280 f6 33 9e be 2d f4 5a 3f 3c c8 77 3d ce da e5 be
       -0.30899018 0.8552883 0.060493693 -0.44893497
000290 e4 0d ae be 8a 92 7e be 5a 40 83 be 1e c7 17 be
       -0.33994973 -0.24860588 -0.25635034 -0.14822051
0002a0 e1 83 78 3f 5c f1 10 be 61 b8 38 3f f5 38 df bd
       0.9707623 -0.14154571 0.7215634 -0.108995356
0002b0 7b 7f ca be 8e 05 93 be 49 27 f1 bd 32 51 67 3e
       -0.39550385 -0.28715175 -0.11775071 0.22589567
0002c0 3b 3a 8d bb 62 1a 2e 3f 21 43 05 bf 84 e3 9b be
       -0.00430992 0.68009007 -0.52055556 -0.30447018
0002d0 bb c2 0a 3f 29 6c b8 3f fa a8 2f 3d 5b 48 01 be
       0.54203385 1.4408008 0.042885758 -0.12625258
0002e0 bd 27 e1 be 38 46 00 bf 07 64 98 3e bb 85 fa 3d
       -0.4397563 -0.50107145 0.29763815 0.12232538
0002f0 ee 07 49 3f 18 2d 8c be 66 4e 97 be d1 39 2e be
       0.78527725 -0.27378154 -0.29552 -0.17014243
000300 05 80 c3 be 83 e7 8e be bd 3e 9b be 13 4d 52 be
       -0.3818361 -0.27911004 -0.30321303 -0.20537214
000310 2f 96 5c 3d b8 77 8d be 09 bf 74 bc 49 a0 8b be
       0.053854164 -0.276304 -0.014938124 -0.27270725
000320 4d 25 06 3f 09 3c f7 bd b4 46 a9 bd 03 ea ba 3d
       0.52400666 -0.12071998 -0.08265439 0.091266654
000330 ec 42 7f be 27 57 9f be d7 a8 6f 3c fa 15 5b bd
       -0.24927872 -0.3112118 0.014627657 -0.053487755
000340 b9 f3 e0 bd 6e 48 99 be 6a 8c e3 3f 63 09 cb bc
       -0.109839864 -0.29938072 1.7777226 -0.02478475
000350 af db 53 3c 3f 8e 93 3e 8e 85 b3 3d 5b 20 16 3e
       0.012930795 0.28819463 0.08765708 0.1466078
000360 1a a6 14 3e a4 f7 36 be 31 ae dd 3c 60 7e 73 be
       0.14516488 -0.17867905 0.0270606 -0.23778677
000370 9e dd 98 3e f9 30 25 be 85 b1 7a be 1d c7 53 3f
       0.2985658 -0.16131963 -0.24481781 0.827257
000380 5f a9 1d bf 42 1e 9a 3e 34 78 bf 3f bc 01 cc be
       -0.61586565 0.3010121 1.4958558 -0.39845073
000390 f0 65 eb bc 8c 8c f3 3f f9 35 02 3f 5b 39 92 be
       -0.028735131 1.9027267 0.50863606 -0.28559384
0003a0 8c 76 1c be e4 9d 01 3f fe 60 3c bf 99 9f 9c 3d
       -0.15279597 0.50631547 -0.735855 0.07647628
0003b0 9c 76 00 3e 0d 3b ff be 46 4c ef bc 1b a8 5e be
       0.12545246 -0.4984974 -0.029211175 -0.21743815
0003c0 49 3b 72 be 5d aa 0a be e6 37 b4 3d 70 77 0a bf
       -0.23655428 -0.13541551 0.08799724 -0.540885
0003d0 23 2a a5 be c8 32 45 be 6b c8 26 be 62 1d 45 be
       -0.3225871 -0.19257653 -0.16287391 -0.1924949
0003e0 83 fe 88 bd f5 21 04 3d a0 c5 81 bd 83 96 54 be
       -0.06689169 0.032258946 -0.06336522 -0.2076054
0003f0 62 64 d7 3e 84 53 63 3e 96 a0 96 be bf 2b 70 be
       0.42068774 0.22199827 -0.29419392 -0.23454188

linear2.weight f4 [3, 256]
000000 eb 9e 6f 3e d5 f9 15 3f 70 35 6a 3d fc 2d 1f 3f
       0.23400466 0.5858434 0.05717987 0.6217954
000010 fb bc ef be 9d a2 82 bf cf 77 b0 bd db d2 3a be
       -0.46823868 -1.0205876 -0.08616602 -0.18244497
000020 c8 d2 a5 be 40 6c 0b be a9 17 88 bf 29 04 c3 3e
       -0.32387376 -0.13615513 -1.063222 0.3808911
000030 af 59 87 be db 23 26 3f b1 6e 3c bf 33 03 02 3f
       -0.2643561 0.6489846 -0.736064 0.5078613
000040 60 f8 83 be 02 9b a6 3e 4c de 28 bf 0c f5 84 3e
       -0.25775433 0.32540137 -0.659642 0.25968206
000050 58 cd 86 be 96 a7 64 3d 43 d3 e3 bd 8c 8a 00 bc
       -0.2632854 0.055823885 -0.11124279 -0.007845532
000060 e6 51 81 bf 32 bb 34 bf e5 98 1f 3f 2e 6e ff bc
       -1.0103118 -0.7059814 0.62342674 -0.031180467
000070 d6 3a 4b bd 27 e7 05 3f db 03 2c bc a1 3f 94 3e
       -0.049616657 0.52305835 -0.010498966 0.28954795
000080 f6 c2 03 bd 68 4b 37 bf fd 15 6d bf 2f be 8e 3c
       -0.03216835 -0.71599436 -0.92611676 0.017424671
000090 7d 75 d1 be 0e 7d 24 3f b0 9d 31 3e 1f 7e c7 3e
       -0.4090995 0.6425332 0.1734531 0.3896341
0000a0 b8 11 ae be aa c1 ec be 53 5f 8e be bc d4 1e be
       -0.33997893 -0.46241504 -0.27807102 -0.15510839
0000b0 3e fd e3 b9 63 d1 72 bd a2 3a 97 be ad 67 a2 bd
       -0.00043485494 -0.059281718 -0.2953692 -0.07929931
0000c0 5b d4 99 bb 08 68 96 bd 36 95 b5 bd 7c e1 fe 3b
       -0.004694504 -0.07344061 -0.0886635 0.0077783447
0000d0 f8 bc 50 bb 07 e3 2f be 5f 67 98 be f8 39 32 bf
       -0.0031850915 -0.17176448 -0.29766366 -0.69619703
0000e0 f9 33 12 bd 51 fc 71 3e a3 62 07 bf 35 2a 1b 3f
       -0.035694096 0.23631407 -0.5288488 0.6061128
0000f0 d1 e2 4c 3e 3b cd 94 be b8 19 03 bf 47 9a 58 3f
       0.20008399 -0.29062828 -0.5121112 0.8461041
000100 9a f2 49 bf 89 ee 82 be 6c 92 ad be 67 21 7c be
       -0.78885806 -0.25572613 -0.33900774 -0.24622117
000110 c4 8d df 3e 9e 9e ec be 04 1e e7 3e d8 54 8f bd
       0.43662846 -0.46214765 0.45140088 -0.069986045
000120 02 f7 d4 3e ab 30 e2 3e f3 d6 be 3b ec 39 a5 bd
       0.41594702 0.44177756 0.005823964 -0.08067688
000130 f7 44 6b bf 03 74 31 bd fb 0f 97 bd 1c d2 38 3f
       -0.91902107 -0.043323528 -0.07376095 0.721956
000140 64 66 c2 3e 4e 8b 00 bf 35 e7 5e 3d 5e e4 83 3e
       0.37968743 -0.5021256 0.054419715 0.25760168
000150 43 e7 d3 bd 96 e3 34 bf 00 b7 ad b8 3f 4f ac be
       -0.10346844 -0.7065977 -8.283369e-05 -0.3365421
000160 7b 1d 9f be 97 a4 cc 3d 83 bb 14 be 7b 3a 27 3f
       -0.3107718 0.099923305 -0.14524655 0.6532361
000170 c2 90 6b 3d 0d d8 76 be 44 4f ab 3e 4d 7e 3c be
       0.0575111 -0.24105854 0.33458912 -0.18407555
000180 e7 f0 3c 3f 9e 60 d3 bd e0 f1 bb be a4 1b 1a 3f
       0.7380509 -0.10321163 -0.36707973 0.60198426
000190 3d b2 da 3e 67 fc 85 bd 1c 62 fd 3e 7a da f4 be
       0.4271411 -0.065422826 0.49488914 -0.47822934
0001a0 37 2b 4d bf 51 f0 16 3f 39 f8 25 bf 63 78 14 3f
       -0.80144066 0.58960444 -0.6483188 0.57996196
0001b0 d2 6e fc 3d de ed d3 be 63 2c c5 bd 04 11 b6 be
       0.12325825 -0.41392416 -0.09627607 -0.35559857
0001c0 78 8a d9 3e 65 2f b8 be 3a f8 aa be 2f e1 59 3e
       0.42488456 -0.3597366 -0.33392507 0.21277307
0001d0 54 1a 18 be 7e 99 62 3e 93 b5 ee 3c 91 01 3c 3f
       -0.14853793 0.22128865 0.029139316 0.7343989
0001e0 3b 04 51 3f e6 4c 43 bf 4f 3f 87 bf c0 9a 34 bd
       0.8164708 -0.7628921 -1.0566195 -0.044092894
0001f0 08 52 e6 bd ec 98 83 be 22 0e c2 3e 3c c1 fd bb
       -0.11246115 -0.25702608 0.37901407 -0.0077439826
000200 19 9d 03 bf 88 09 58 be 90 43 18 3f 1f 58 01 bd
       -0.51411587 -0.21097386 0.5947809 -0.03157818
000210 c3 58 bb 3d c4 28 35 be 5b 79 9b bc 66 90 37 bf
       0.09147789 -0.17691332 -0.018978765 -0.7170471
000220 63 8a c7 be 29 9f 04 3f eb 60 5b bf fb 7e d5 bd
       -0.38972768 0.5180536 -0.8569476 -0.1042461
000230 be 18 f6 bc ca 8e 0a 3f ba 28 c1 bd 4b f6 32 bf
       -0.030041095 0.5412413 -0.09431596 -0.69907063
000240 df 6b 1a 3f 79 f8 6e be 3b fb c1 bc 0e ee 03 3f
       0.6032085 -0.23336972 -0.023679366 0.5153512
000250 1f aa ac be 47 45 ea 3e 75 90 9f 3e bb 00 3c 3c
       -0.33723542 0.4575598 0.311649 0.0114747835
000260 e2 2b 8a bd c8 6a b8 bd fd 8e d4 bd 05 0c 74 bd
       -0.06746651 -0.09004742 -0.10378835 -0.059581775
000270 a1 a1 88 3e d5 24 b8 3e 6d fe 44 bc c8 3e 9d bd
       0.26685813 0.359656 -0.01202355 -0.0767799
000280 41 4c 34 bd 92 fa 19 3f 6a 7b 74 3f 17 de dd bd
       -0.044018034 0.60147965 0.95500815 -0.10833376
000290 f0 69 d8 bd 04 05 21 be 3b 44 bc bc 7f 79 9b bb
       -0.10567081 -0.1572457 -0.022981754 -0.004744708
0002a0 5c cb 22 3f c6 26 ec be 0c c4 16 3f 86 00 f8 be
       0.6359155 -0.46123332 0.58892894 -0.484379
0002b0 7e 12 b1 3d a8 e4 ee bc 46 60 ac be d3 81 2c 3f
       0.08646105 -0.029161766 -0.336672 0.67385596
0002c0 a6 22 10 bf 98 ed 10 3f 93 d9 cf be ee bd 14 be
       -0.5630287 0.5661254 -0.40595683 -0.14525577
0002d0 f3 c5 87 3e 45 cd 1a 3f d8 01 f2 3a 6b 7d 39 bf
       0.2651821 0.60469466 0.0018463684 -0.72457
0002e0 0c b4 07 bd c0 fd aa bd 6a 52 b7 3e 3c 00 1d 3e
       -0.03313069 -0.0834918 0.35805064 0.1533212
0002f0 f2 b6 3b 3f dc 42 c5 bc cc 8e 12 bf 63 cd 8c bd
       0.7332603 -0.024079733 -0.5724914 -0.06875112
000300 2e ce 9d 3d ac 2a af be 70 82 67 be 8d 26 13 bf
       0.07705341 -0.34212244 -0.22608352 -0.574807
000310 0f 9e 21 3f 79 76 f2 be 45 16 3c bf 7c 42 86 bd
       0.63131803 -0.47356012 -0.7347148 -0.0655565
000320 71 79 21 3f 29 70 3b 3e 11 b3 bc 3d 70 86 40 3e
       0.6307593 0.18304504 0.09213842 0.18801284
000330 ac 1a e5 bd e2 78 d7 be c3 c4 2a 3e f2 70 df 3d
       -0.11186728 -0.42084414 0.16676621 0.109102145
000340 68 e3 fb be 71 55 e6 bc fd 5d 9d 3e b2 62 2f be
       -0.49196935 -0.028116914 0.3073577 -0.17127493
000350 51 7f 66 be 1c 6a 2e 3f 95 1b ce be eb 36 bd 3e
       -0.22509505 0.6813066 -0.40255418 0.36955962
000360 a1 9c c3 3e 00 f5 24 bd af 67 c5 3e 18 4e 3c bf
       0.38205436 -0.040272713 0.38555667 -0.7355666
000370 1a 79 aa 3e dd 30 70 be d0 85 49 3c 71 7e 09 3f
       0.33295518 -0.2345614 0.01229997 0.5370856
000380 52 54 50 be c3 e8 22 3f 36 4d 0b 3f 7d 4c de bc
       -0.20344666 0.63636416 0.5441469 -0.027136082
000390 86 8e 02 bf 02 89 0e 3f 9f e9 18 3f 90 18 5d bf
       -0.50998724 0.5567781 0.5973148 -0.86365604
0003a0 b2 5d 7a bf 81 68 0a 3f 16 20 b0 be c9 b5 ff be
       -0.9779922 0.5406571 -0.3439948 -0.4994338
0003b0 f9 d2 90 3d 5c 5f 4f be c2 1a d5 3d 92 f6 75 3e
       0.0707149 -0.2025122 0.10405494 0.2401984
0003c0 a8 c9 16 bf 8a 0e 09 bf 2f d2 8f 3f f2 6a 62 be
       -0.58901453 -0.5353781 1.1236018 -0.22111109
0003d0 0e c8 47 3e 5c 01 30 bd 5f 89 44 bd f2 f4 5c bc
       0.19509909 -0.042970046 -0.04798257 -0.013486134
0003e0 6e 6b 34 bf e1 1e 4a bf d4 22 d8 be 7b a6 47 be
       -0.70476425 -0.7895337 -0.42214072 -0.19497101
0003f0 0d c2 26 3f 82 a4 89 3e 92 8b 38 bc 99 0f 31 bf
       0.6513985 0.26883322 -0.011263745 -0.69164425

linear2.bias f4 [3]
000000 85 4b 1a 3f 7f 57 62 3e 91 de d3 3d
       0.60271484 0.2210369 0.103451855
